…
[33m13:00:06 [articulation.py] WARNING: The function 'set_external_force_and_torque' will be deprecated in a future release. Please use 'permanent_wrench_composer.set_forces_and_torques' instead.[0m
--------------------------------------------------------------------------------
Resolved observation sets: 
	 actor :  ['policy']
	 critic :  ['policy']
--------------------------------------------------------------------------------
Actor Model: CbfTeacherRMAModel(
  (obs_normalizer): Identity()
  (distribution): GaussianDistribution()
  (mlp): _SplitRMAMLP(
    (0): _PrivEncoder(
      (normalizer): _PrivRunningMeanStd()
      (net): Sequential(
        (0): Linear(in_features=14, out_features=64, bias=True)
        (1): ELU(alpha=1.0)
        (2): Linear(in_features=64, out_features=64, bias=True)
        (3): ELU(alpha=1.0)
        (4): Linear(in_features=64, out_features=16, bias=True)
        (5): ELU(alpha=1.0)
      )
    )
    (1): _GridEncoder(
      (conv): Sequential(
        (0): Conv2d(2, 16, kernel_size=(3, 3), stride=(2, 2), padding=(1, 1))
        (1): ELU(alpha=1.0)
        (2): Conv2d(16, 32, kernel_size=(3, 3), stride=(2, 2), padding=(1, 1))
        (3): ELU(alpha=1.0)
      )
      (proj): Sequential(
        (0): Linear(in_features=8192, out_features=64, bias=True)
        (1): ELU(alpha=1.0)
      )
    )
    (2): MLP(
      (0): Linear(in_features=99, out_features=128, bias=True)
      (1): ELU(alpha=1.0)
      (2): Linear(in_features=128, out_features=128, bias=True)
      (3): ELU(alpha=1.0)
      (4): Linear(in_features=128, out_features=5, bias=True)
    )
    (proprio_normalizer): _PrivRunningMeanStd()
  )
)
Critic Model: CbfCriticRMAModel(
  (obs_normalizer): Identity()
  (mlp): _SplitRMAMLP(
    (0): _PrivEncoder(
      (normalizer): _PrivRunningMeanStd()
      (net): Sequential(
        (0): Linear(in_features=14, out_features=64, bias=True)
        (1): ELU(alpha=1.0)
        (2): Linear(in_features=64, out_features=64, bias=True)
        (3): ELU(alpha=1.0)
        (4): Linear(in_features=64, out_features=16, bias=True)
        (5): ELU(alpha=1.0)
      )
    )
    (1): _GridEncoder(
      (conv): Sequential(
        (0): Conv2d(2, 16, kernel_size=(3, 3), stride=(2, 2), padding=(1, 1))
        (1): ELU(alpha=1.0)
        (2): Conv2d(16, 32, kernel_size=(3, 3), stride=(2, 2), padding=(1, 1))
        (3): ELU(alpha=1.0)
      )
      (proj): Sequential(
        (0): Linear(in_features=8192, out_features=64, bias=True)
        (1): ELU(alpha=1.0)
      )
    )
    (2): MLP(
      (0): Linear(in_features=99, out_features=128, bias=True)
      (1): ELU(alpha=1.0)
      (2): Linear(in_features=128, out_features=128, bias=True)
      (3): ELU(alpha=1.0)
      (4): Linear(in_features=128, out_features=1, bias=True)
    )
    (proprio_normalizer): _PrivRunningMeanStd()
  )
)
[sweep] 10 configs × 1000 steps each
[33m13:00:12 [articulation.py] WARNING: The function 'set_external_force_and_torque' will be deprecated in a future release. Please use 'permanent_wrench_composer.set_forces_and_torques' instead.[0m
[33m13:00:17 [articulation.py] WARNING: The function 'set_external_force_and_torque' will be deprecated in a future release. Please use 'permanent_wrench_composer.set_forces_and_torques' instead.[0m
…
